Homey/WebView2/MLModels/autofill_labeling_email.onnx (onnx, 17141 bytes, 5 tensors)

W f4 [58, 40]
000000 07 a2 8f 3c e6 21 42 3e a4 6e 21 3e 9e 24 99 3c
       0.017533315 0.18958244 0.15764862 0.018694218
000010 ab 86 01 3e f6 54 89 3e cd 65 65 be a1 bd 4a 3e
       0.12649028 0.26822633 -0.22402115 0.197989
000020 d8 e2 5a 3e 4a e9 71 be cf b9 db 3d d2 25 80 3d
       0.21375597 -0.23624149 0.107287996 0.06257214
000030 02 e6 e7 bd 02 2e 30 bd ae 79 01 3d f5 0d f5 3d
       -0.113231674 -0.043012626 0.031610183 0.11965553
000040 80 aa 80 bd 83 0c 76 bd fe 17 56 3d a2 39 54 be
       -0.0628252 -0.060070526 0.052268974 -0.2072511
000050 95 d2 13 3e 3d 12 16 3e a0 36 dd bc 23 b8 75 bd
       0.144358 0.14655395 -0.027003586 -0.05999006
000060 fb b5 68 3e 4c 59 2b 3d c3 67 df 3d f9 90 0d 3e
       0.2272567 0.041833207 0.10908463 0.13824834
000070 5b 87 4d be d7 64 5d 3e 38 4b 84 bd 5c 56 5f be
       -0.20071165 0.21620499 -0.06459659 -0.21810287
000080 90 a8 da bd 18 e1 67 bd c7 72 eb bd 2b d7 b4 3d
       -0.10676682 -0.05661115 -0.114965014 0.088301025
000090 df 96 8a 3d f2 6f f6 bd 72 84 01 3d e1 95 3f be
       0.067670576 -0.120330706 0.03162045 -0.18709518
0000a0 0d 79 84 3e 9a 34 30 be a2 ca 9a bd 7f 37 99 3e
       0.25873604 -0.17207566 -0.075581804 0.29925153
0000b0 df 1f 79 be 34 b9 70 3e 88 f5 bd 3c 9c 18 58 be
       -0.24328564 0.2350815 0.023188367 -0.21103138
0000c0 bf 75 3b 3b 79 de ca 3d 1f 1b 5a be c6 ae 39 be
       0.0028604118 0.099057145 -0.21299408 -0.18133077
0000d0 89 a5 fe bd 84 57 11 bd cd dc 7c be 52 eb 2a 3e
       -0.12433917 -0.035483852 -0.24693604 0.1669133
0000e0 a9 8e 32 3d 7f 4b 74 3d 3f a4 ec 3d 53 81 5c bb
       0.043593083 0.05964231 0.11554765 -0.003364642
0000f0 b2 0c 9b bd 36 52 83 3c e1 8f 24 3e 80 79 6c 3d
       -0.07570781 0.016030412 0.1607051 0.05773306
000100 f5 65 b9 bd da fa 9a bd 4c 70 a8 bb 08 e2 9b bd
       -0.0905265 -0.075673774 -0.00514034 -0.076114714
000110 80 2a 95 39 27 4c 74 3e 94 a5 ee bd 72 61 07 bd
       0.0002845116 0.23857175 -0.11652675 -0.033051915
000120 c5 b7 1c be e6 3c c4 bd 3e 3d bc bd ae 75 a5 bd
       -0.15304478 -0.09581928 -0.091913685 -0.08079086
000130 b8 59 f9 3d 97 67 3e be eb 7b 5f 3e 5a 3b e6 3d
       0.121753156 -0.18594204 0.21824615 0.11241789
000140 f0 ad e4 3d 8e cd a0 3d 77 32 3d be e7 58 e7 3d
       0.111659884 0.078517064 -0.18476282 0.11296254
000150 ae f6 d1 3d df 03 70 3d 63 1e 53 be ab 2a 90 bc
       0.102521285 0.05859744 -0.2061706 -0.01759847
000160 26 50 35 be 49 97 1d 3e 68 a3 4b 3e 87 1d 01 3e
       -0.17706355 0.15389742 0.19886553 0.1260892
000170 21 fd c4 3d dc c1 f0 bc 89 2e da bb bc 4b 1a bd
       0.09618593 -0.029389314 -0.0066583795 -0.037669882
000180 25 0c d9 3d 79 b1 53 3e e0 4b 5e be 9f bd 48 be
       0.105980195 0.20673169 -0.21708632 -0.19603585
000190 eb 34 0f 3e 25 21 38 be ae 65 32 be b6 1c 7c 3e
       0.1398503 -0.17981394 -0.174216 0.24620327
0001a0 4c 07 32 be 5c ca 79 3e 76 78 59 3e 0f fa 73 3e
       -0.17385596 0.243936 0.21237358 0.23825859
0001b0 87 4e 49 be 0b e3 2e 3e 43 41 3a bd 44 c4 84 bb
       -0.19658862 0.17078798 -0.045472395 -0.004051717
0001c0 6e 5a 86 3e be 3a 1e 3e e0 30 92 3e df 29 92 3e
       0.26240867 0.15452096 0.28552914 0.2854757
0001d0 84 f4 de 3d 05 de 8d 3d 1c 9a 4b bd 81 19 5c 3e
       0.108864814 0.069271125 -0.049707517 0.21494104
0001e0 61 0f 27 3d 6c 85 19 3e 7c 48 ed 3d 86 15 a7 bb
       0.04078615 0.14992303 0.11586091 -0.0050990013
0001f0 93 35 65 3e 94 c3 bd 3b 30 02 7b 3c 75 60 b6 3d
       0.22383718 0.005791137 0.015320346 0.089051165
000200 2f e8 91 3c d8 03 6e bd 1f 6d da 3d 00 64 5b be
       0.01781091 -0.058109134 0.106653444 -0.21424866
000210 f1 d3 92 3d 03 6b fe 3d 81 50 ab 3d 65 50 0f 3e
       0.07169331 0.124227546 0.08364964 0.13995512
000220 2d 48 1c bd d6 25 ba bd 9c 7b 2b 3d c0 85 19 3c
       -0.03815477 -0.09089248 0.04186593 0.009370267
000230 dc 80 80 3d 7a ad f1 3d 92 ec cd 3a 54 c3 1f 3e
       0.06274578 0.11800666 0.0015710762 0.15601856
000240 18 4c 03 bd a6 16 93 3d 03 55 ad 3d 28 63 a4 3d
       -0.03205499 0.07182054 0.0846348 0.08026725
000250 a9 1a 6a 3e fe c1 2a 3c 01 27 30 3c af da dc bd
       0.22861733 0.010422228 0.010751487 -0.10783898
000260 96 c9 72 3c 40 ac 0d 3e 54 cb b9 ba 86 28 fb bc
       0.01481857 0.1383524 -0.0014174976 -0.030658972
000270 3a 03 48 3e d4 7e 62 3b a5 33 a4 bb 44 7a bd bc
       0.19532481 0.0034560459 -0.0050110393 -0.02312959
000280 a8 99 a9 ba 9b c4 10 3e 9d 2b 8f 3d 0e 25 12 3e
       -0.001293947 0.14137499 0.069907404 0.14271948
000290 48 62 9a 3c 53 86 86 3e b4 9a 0b be a1 d3 83 3e
       0.018845692 0.26274356 -0.13633233 0.25747398
0002a0 2c e0 0f be 07 1f 75 be e3 1d 75 3d 20 e9 6f be
       -0.14050359 -0.23937617 0.059842955 -0.23428774
0002b0 a0 10 7a bc 85 b7 6b 3e 93 81 1e 3e 37 35 42 be
       -0.015262753 0.23019226 0.15479116 -0.18965612
0002c0 d0 c3 e2 bd e3 dc 2d 3d 54 dd 79 3e df 21 8f 3c
       -0.110725045 0.042446982 0.24400836 0.017472206
0002d0 79 84 a3 3d d8 74 4e be 6f ef 58 3e fe c7 a1 bc
       0.079842515 -0.2016176 0.21185087 -0.019748684
0002e0 84 4d 54 be db f9 19 3d 75 01 00 be ad 0e 10 be
       -0.20732695 0.037591796 -0.12500556 -0.14068098
0002f0 86 ea 24 be 8b 3c 23 3e 5a 0a 34 be ce 1f 39 3e
       -0.16105089 0.15941064 -0.17582074 0.18078539
000300 d5 b4 94 3e 28 0e d1 bc 06 5c 5f 3e 0a 70 8a 3e
       0.29044214 -0.025519446 0.21812448 0.27038604
000310 80 d8 0c bd 96 64 53 3e ed 49 5d 3d 90 f4 2f bd
       -0.034386158 0.20643839 0.05402558 -0.042957842
000320 ae 15 de bd 6a 5b 31 bc 99 af 97 be 6b 5b de bc
       -0.10843979 -0.0108250175 -0.29626158 -0.0271432
000330 52 a6 eb bc 21 6d 22 3c f7 68 11 3a fa a2 29 3e
       -0.028765831 0.009913714 0.0005546952 0.16566077
000340 e3 2f 36 3e cb fa 61 be 07 46 9a 3d 4b 2a a9 bb
       0.17791705 -0.22068326 0.07532888 -0.0051625124
000350 40 4a 49 3c 47 92 4f 3d 26 99 f2 3d 86 36 03 bc
       0.012285769 0.05067661 0.11845617 -0.008008605
000360 14 67 88 3c ea 4f 77 be db b3 f5 3d 5a 43 a2 3c
       0.016650714 -0.24151579 0.11997195 0.019807506
000370 28 71 a7 3a ce 1a 25 3c f2 c8 08 3e aa a9 27 3e
       0.0012774812 0.0100771915 0.13357905 0.16373315
000380 b6 bf f5 3d 9b be ec 3d 2c 1e de bd e1 27 2e be
       0.119994566 0.115597926 -0.108455986 -0.170074
000390 f3 49 3c 3d 71 7d 6f 3d 88 ee 7c 3c 29 fb 1f 3e
       0.04596896 0.05846924 0.01543773 0.15623154
0003a0 49 85 f6 bd a4 c6 9a 3d b2 37 05 bd 0f 15 14 be
       -0.12037141 0.07557419 -0.03252382 -0.14461158
0003b0 7a 77 af 3d 53 54 ea 3d 14 80 b6 bd e3 9a 0a bb
       0.0856771 0.11441865 -0.08911148 -0.0021149449
0003c0 84 b2 86 3e 9f 59 3d 3d 92 28 1f 3e 99 cd b1 bd
       0.26308072 0.046228047 0.1554282 -0.08681793
0003d0 50 0b 45 3c 0c 51 4c 3e 10 fa 75 bd c1 fa eb 3d
       0.012026623 0.19952792 -0.06005293 0.11522437
0003e0 ed f8 b8 3a 19 dd f1 bd 4a 48 01 3e 14 27 67 3d
       0.0014112272 -0.11809749 0.12625232 0.056433752
0003f0 6b 9c c8 3d b4 97 18 be 1f 0f e3 bd ff bc 36 be
       0.09795459 -0.1490162 -0.110868685 -0.17845534

B f4 [40]
000000 94 bd 88 bb 03 2a 18 bd ce cb 5a 3e fa 4c 0c bb
       -0.00417299 -0.03714944 0.21366808 -0.0021408186
000010 24 0a 88 3e fa 69 90 bb b9 94 45 3e d9 ef 5d ba
       0.26570237 -0.0044071646 0.19295014 -0.0008466221
000020 13 3d d7 bc ae da 84 3e d3 52 8f 3e 64 d9 17 bb
       -0.02627424 0.2594809 0.27992877 -0.0023170346
000030 b0 93 67 3e 25 89 5b bd 6c 0d 20 3e 11 bb 55 3c
       0.22614932 -0.053597588 0.1563012 0.013045088
000040 99 5d 89 3e 3c a0 82 bb bf f9 b1 bc 3b 6b 86 3e
       0.26829222 -0.0039863866 -0.021725534 0.26253685
000050 5a b6 a1 bb 65 47 b6 bb 7a 1d 91 bb 56 b0 85 bc
       -0.004935068 -0.00556271 -0.0044285627 -0.016319435
000060 67 16 67 ba e2 b2 95 bc 22 9b f0 ba 64 a7 ff 3a
       -0.0008815289 -0.018273775 -0.001835678 0.0019504842
000070 ef 50 53 3e 36 87 dd bb df 97 4b bc 99 77 0e bd
       0.20636342 -0.006760503 -0.012426346 -0.034782026
000080 ee af 57 bb ed b1 78 3e cc 2b 5a ba e2 f6 54 bb
       -0.0032911259 0.24286623 -0.0008322566 -0.0032495786
000090 2e 09 50 3e 31 db f0 bb 3a 7f 6e bb 5d a4 95 3e
       0.20316002 -0.0073503484 -0.003639175 0.29226962

W1 f4 [40, 40]
000000 13 f4 9b be 32 36 0d 3f b8 c0 0f 3f 3b 37 ad be
       -0.3045965 0.5516082 0.5615344 -0.338312
000010 18 d8 a1 be ee 03 a8 be 77 0c 7b be d1 18 c8 be
       -0.3161018 -0.32815498 -0.24516474 -0.39081433
000020 9e 0f 34 be 31 68 17 3f 44 59 f0 3e 82 6c 6a 3e
       -0.17584082 0.5914336 0.46943104 0.22892955
000030 2b 25 b3 bd 4a f6 36 bd c8 58 21 be b8 fd 99 be
       -0.087473236 -0.044668473 -0.15756524 -0.30076385
000040 eb fe 85 3e c9 be 5d be ef 46 ec 3e c0 f0 0b 3e
       0.2617105 -0.2165481 0.46147868 0.13666058
000050 7e d9 a2 be e5 ed e2 bd 3c 7c f4 bd c0 ab ba 3e
       -0.31806558 -0.11080531 -0.11937758 0.3645916
000060 31 db 50 3e ca 08 28 3f b0 25 4e be 52 0a b8 be
       0.20396115 0.6563841 -0.20131564 -0.35945374
000070 ec 7f 8d be 0e 47 37 be 74 d3 b3 be 51 69 60 be
       -0.2763666 -0.17898199 -0.35122263 -0.21915175
000080 bd 11 40 be eb a5 b9 be 8a bb 0b 3f 2b d4 9d be
       -0.18756767 -0.36259398 0.54583037 -0.30825934
000090 fc 8b a5 be 1b 50 2e 3f 39 ec 28 3f b7 b1 14 3f
       -0.32333362 0.6809098 0.6598545 0.5808367
0000a0 bb 91 4d 3d da 77 99 bd c5 45 cf 3c 82 aa 53 3e
       0.050187808 -0.07493563 0.025301823 0.20670512
0000b0 2a ef 4e 3e 97 a3 22 bb a7 95 d9 bc 4c a2 4a 3e
       0.20208421 -0.0024816745 -0.026560618 0.19788474
0000c0 2a 26 a7 3d 21 46 e0 3d 89 c4 7d bd 9f 22 5e 3c
       0.08161576 0.10950876 -0.06195501 0.013558059
0000d0 95 af 62 3e d3 a4 23 bc 4d 65 9c 3e 2c 24 ac 3e
       0.22137292 -0.009988028 0.30546036 0.33621347
0000e0 f9 b6 23 3c 4f bc 86 3e 64 c0 dd bd e3 46 11 3e
       0.009992355 0.26315543 -0.10827711 0.14187197
0000f0 7a 53 a4 3a 30 d7 db 3d 3a d6 e4 3c 53 e3 2f 3d
       0.0012537085 0.10734403 0.027934182 0.042941403
000100 86 ef 80 bc 28 a1 f0 3c 39 1a 91 3e ca a9 92 3e
       -0.015739214 0.02937372 0.2834032 0.28645164
000110 37 2d 05 3e 50 d9 8e 3b a1 cb 14 3e c6 8d 6b 3e
       0.1300553 0.0043594018 0.14530803 0.23003301
000120 e6 a4 82 3e 21 d8 6c 3e 46 46 18 3d 77 a8 88 3e
       0.25516433 0.23129322 0.037176393 0.26691028
000130 35 04 80 3e c7 35 ce 3d 95 69 bd bd 45 1c 4c 3e
       0.2500321 0.10068851 -0.09248654 0.19932659
000140 68 12 0d 3f df d6 f6 bc 0c 38 57 bd ed d7 97 3e
       0.5510621 -0.030131755 -0.052543685 0.29656926
000150 89 9a 8e 3e b8 2f f2 3e 35 52 eb 3e 98 a1 9e 3e
       0.27852276 0.47302032 0.45961156 0.3098266
000160 9b 94 85 3e fc fb 8d bc 45 c4 93 bc ac cf 32 3d
       0.2608994 -0.01733207 -0.018037925 0.043655083
000170 a2 35 e2 3e 7c f6 db 3e be c5 e8 3e 64 3f ab 3e
       0.44181544 0.4296149 0.45463365 0.334468
000180 3f ba bc bc 65 de db 3e 81 74 a1 bd 09 42 f0 bc
       -0.023038028 0.4294311 -0.078835495 -0.029328363
000190 8f f0 93 3e 54 df f4 3e a5 0c 9b 3e 0e 02 91 bd
       0.2889447 0.47826636 0.30283085 -0.0708047
0001a0 7f bc d4 bc 22 59 40 bd 8f f8 f7 3e 87 d3 b2 3e
       -0.025968788 -0.046960004 0.48431823 0.34927008
0001b0 f4 62 d6 3e 50 26 0d 3f cf 9c 0b 3f 16 4e b3 3e
       0.4187237 0.55136585 0.54536146 0.35020512
0001c0 6e e2 90 3e 74 1c af 3e 20 ee 93 bc 57 41 11 3f
       0.28297752 0.34201396 -0.018057883 0.56740326
0001d0 bb 79 b3 3e ff 38 50 bd d3 72 ee bc 9a df 84 bd
       0.3505381 -0.050835606 -0.029107487 -0.06487961
0001e0 85 67 ac bd af 9a e3 3e 08 8a c7 3e 96 fb 32 3d
       -0.08418182 0.44453952 0.38972497 0.043696962
0001f0 b5 e2 3b be 11 e7 9b bd 44 7e 00 be e0 da 4e be
       -0.183482 -0.07612432 -0.12548167 -0.20200682
000200 d8 a1 a9 bc ef 6a ae 3e d4 f4 9c 3e 34 db ac 3e
       -0.020707056 0.3406596 0.3065554 0.3376099
000210 4a 4f 4b be f4 4b a1 be 54 86 b7 be 94 25 d3 bd
       -0.19854465 -0.3150326 -0.35844672 -0.10309902
000220 27 a1 22 3f 69 50 25 be a7 37 20 3f 1f 05 e9 3e
       0.6352715 -0.16143955 0.6258492 0.4551172
000230 d2 da 01 bf 46 f5 17 be 69 90 8e be 9c 0d 27 3e
       -0.5072452 -0.14839658 -0.2784455 0.16313785
000240 66 e1 33 3f f8 e1 c8 3e c0 39 86 be d9 9c df bd
       0.70265806 0.392349 -0.26215935 -0.10918588
000250 0c 31 b6 be ea 0a 9d be 4b 2e c7 be 58 c6 ef be
       -0.35584295 -0.3067239 -0.38902506 -0.46831012
000260 50 64 b1 be 20 61 dc be 6a 38 d0 3e 5e d1 81 be
       -0.34646845 -0.4304285 0.4066804 -0.25355047
000270 26 5c ca bd 6e 51 d2 3e b7 45 06 3f 64 50 cd 3e
       -0.09880857 0.4107775 0.52450126 0.40100396
000280 5c 92 39 3f 1e c6 d2 bd 4f 21 96 bd a8 06 15 3f
       0.7248895 -0.10291694 -0.07330572 0.5821328
000290 ac ea 24 3f 00 0d 52 3f 08 ac 16 3f fa 98 26 3f
       0.6442058 0.82051086 0.5885625 0.65077174
0002a0 a6 b6 e6 3d d3 b1 c5 bd c6 e2 19 be 71 10 fa bd
       0.11265306 -0.09653058 -0.15027913 -0.12210167
0002b0 93 03 f9 3e a7 20 4a 3f 87 67 40 3f 98 76 47 3f
       0.4863554 0.78956074 0.7515797 0.77915335
0002c0 d5 62 73 be ae b8 f8 3e a0 f7 77 be f4 61 32 bd
       -0.2376817 0.485784 -0.24215555 -0.043550447
0002d0 67 53 2e 3f eb f7 1e 3f bd 73 0b 3f a6 3f 47 bd
       0.6809601 0.6209704 0.5447348 -0.048644684
0002e0 61 5b 72 be c2 66 61 bd 35 af 16 3f c5 93 33 3f
       -0.23667671 -0.055029638 0.58861095 0.70147353
0002f0 8c 2b 26 3f eb d6 fa 3e 69 59 4e 3f c6 63 25 3f
       0.649102 0.48992094 0.8060518 0.6460537
000300 a6 66 05 3f b0 4e 59 3f 2e e1 fd bd 7a 27 4b 3f
       0.52109754 0.8488569 -0.12396465 0.7935711
000310 a3 43 20 3f 15 0f 34 be 34 4b 06 be 2c 6d aa bd
       0.62603205 -0.17583878 -0.13114625 -0.08321604
000320 a8 e4 00 bf d0 5b 3e 3f 66 e2 3e 3f c9 89 71 be
       -0.503489 0.74358845 0.74564207 -0.23587717
000330 7a 72 f6 be e9 bd 99 be 3f 3f bf be ea 31 e5 be
       -0.48134214 -0.30027702 -0.3735294 -0.44764644
000340 ca 2f a9 bd 50 20 21 3f 07 df a0 3e 20 eb 1b 3f
       -0.08261068 0.6293993 0.31420156 0.6090565
000350 1b 69 1c bf 76 75 65 be 32 a7 cd be 82 3f cb be
       -0.6109788 -0.22408089 -0.40166622 -0.3969689
000360 52 fe b4 3e 80 46 81 be 3b 36 df 3e 2e dd f3 3e
       0.3535028 -0.252491 0.43596062 0.47629684
000370 57 85 81 be f6 8c d2 be 9d 3c e3 be d0 77 4c 3f
       -0.25297043 -0.4112317 -0.44382182 0.7987032
000380 bc 40 36 3f 07 36 fc 3e 17 57 82 be 12 82 a8 be
       0.71192527 0.4925997 -0.2545707 -0.32911736
000390 62 d5 04 bf 81 18 88 be 68 8b db be 86 ab b1 be
       -0.51888096 -0.26581195 -0.42879796 -0.34701174
0003a0 4e 79 34 be 9a 95 d2 be 81 51 0a 3f c3 43 3a be
       -0.17624399 -0.41129762 0.54030615 -0.18189912
0003b0 f1 7e e3 be 41 4e c0 3e ab 44 e2 3e 7c ab e2 3e
       -0.44432786 0.37559703 0.44193015 0.44271457
0003c0 79 4e ce 3e 03 f3 a4 bc 1a 4d 3e 3d 63 a2 e6 3e
       0.40294245 -0.020135408 0.04646025 0.45045766
0003d0 33 37 82 3e 5e f4 d4 3e 0d ac ca 3e 8f 4d 05 3f
       0.2543274 0.41592687 0.3958439 0.5207147
0003e0 25 4e f3 3d d4 bb 59 bd 28 e6 d1 bd 12 40 5e bd
       0.11880139 -0.053157642 -0.10248977 -0.05426032
0003f0 ef 3a 09 3f 21 33 c7 3e 41 37 b5 3e 76 51 f4 3e
       0.5360555 0.38906196 0.35393718 0.477184

B1 f4 [40]
000000 bc 0c e0 3e dc d6 36 3d 0d 60 e9 3c 76 dc 62 3e
       0.43759716 0.0446385 0.028488183 0.22154412
000010 dc f6 d4 3e 3d 43 be 3e f5 c9 a6 3e 28 cc a6 3e
       0.4159459 0.37160674 0.32575956 0.32577634
000020 65 bc 7a 3e f3 3a e2 3c 3a 54 99 3d 83 c7 45 3d
       0.2448593 0.027616 0.07486768 0.048285972
000030 86 1e c6 3e 62 f8 c5 3e ea 74 b7 3e ad ce 99 3e
       0.38695163 0.38666064 0.35831386 0.30040494
000040 a5 54 02 3d 30 72 98 3e 0d 32 7a 3d 73 b7 17 3d
       0.031819005 0.29774618 0.06108289 0.037040185
000050 d4 87 c7 3e 32 a2 91 3e 4b ea d6 3e a4 ba 9b 3d
       0.38970816 0.28444058 0.41975626 0.07603958
000060 46 b1 89 3c 0e 88 c6 3c f1 81 a3 3e 52 37 b9 3e
       0.016808163 0.024234798 0.31935075 0.3617502
000070 67 53 ba 3e 27 1c c4 3e 84 34 97 3e 40 b8 b7 3e
       0.36391756 0.3830273 0.29532254 0.3588276
000080 51 fc e6 3e 66 f9 c9 3e 8f 19 80 3d 3f e9 b8 3e
       0.45114377 0.39448088 0.06254875 0.36115453
000090 05 95 ae 3e f8 d4 49 3c 7e 7d 59 3d 2f 74 17 3d
       0.34098068 0.012318842 0.053098194 0.036976036

W2 f4 [40, 1]
000000 ba b5 6d bf d5 ed 6b 3f ee 5b 73 3f 1c e5 f9 be
       -0.9285542 0.9215978 0.9506215 -0.4880761
000010 e5 33 84 bf 87 4e 86 bf ea e5 63 bf 14 e7 5b bf
       -1.0328337 -1.0492715 -0.89022696 -0.8589947
000020 b7 4f 1b bf 3c 8f 71 3f ca 19 81 3f 5e 13 5b 3f
       -0.6066851 0.94359183 1.0085995 0.85576427
000030 02 b7 46 bf b0 72 85 bf ac ea 92 bf b4 20 88 bf
       -0.77623 -1.0425625 -1.1477866 -1.063498
000040 cb 18 50 3f ef bb 7a bf f4 fc 7f 3f fa a4 60 3f
       0.8128783 -0.97943014 0.9999535 0.87751734
000050 ac 97 43 bf 6a f2 81 bf dc fd 5c bf cd 30 46 3f
       -0.7640331 -1.0152104 -0.8632486 0.77418214
000060 f5 2c 96 3f 7a e6 8e 3f 26 76 7d bf d8 16 7d bf
       1.173247 1.1164086 -0.99008405 -0.9886298
000070 46 b5 76 bf dc 7c 7f bf 50 4e 83 bf 89 a8 4f bf
       -0.9637035 -0.99799895 -1.0258274 -0.8111654
000080 f1 55 97 bf 54 80 89 bf 9b 48 71 3f 18 a1 6c bf
       -1.1823102 -1.0742288 0.9425141 -0.9243331
000090 f0 b2 42 bf a9 61 88 3f 0a 05 8c 3f 86 a5 84 3f
       -0.76054287 1.0654804 1.0939038 1.0363014
