Homey/WebView2/MLModels/autofill_labeling.onnx (onnx, 13040 bytes, 3 tensors)

W f4 [40, 1]
000000 1c 4d 72 3f f5 f4 86 3f 13 09 8d 3f b4 ce 85 3f
       0.9464891 1.0543505 1.1018394 1.0453706
000010 38 e4 30 3a de d2 d1 bd b9 fb 61 3f dd 65 eb 3f
       0.00067478744 -0.10245298 0.88274723 1.8390461
000020 57 65 ce 3f c6 f4 82 3f 55 24 c5 3f 89 54 65 be
       1.6124676 1.0230949 1.5401713 -0.22395529
000030 8c 3e 96 3f 70 5f 8e 3f 2a 78 60 3f ce af cc 3f
       1.1737838 1.1122875 0.87683356 1.5991151
000040 e0 ba d8 3f c5 7b 40 3f 5e 3b 00 bf 3c 3e 8a 3f
       1.693203 0.7518886 -0.5009059 1.0800242
000050 94 dc 9c 3f 9b 74 cc 3f 91 18 b1 3f 08 9c 81 3f
       1.2254815 1.5973085 1.3835622 1.0125742
000060 07 2a a2 3f 34 e9 89 bd 51 f7 b9 3f 3f 1a 51 bd
       1.2669076 -0.06733933 1.45286 -0.05105042
000070 67 4a b6 3f 9a 4b 8b 3f a2 5b 9f 3f 36 eb 65 3f
       1.4241456 1.0882447 1.2449839 0.8981203
000080 50 9d d5 3f 1b 96 7e 3f 68 9b 9b 3f 08 c9 d9 3f
       1.6688633 0.9944779 1.2156801 1.7014475
000090 26 54 87 3f e0 90 92 3f 3f f9 95 3f 68 e1 8e 3f
       1.0572555 1.1450462 1.1716689 1.1162539

W1 f4 [75, 40]
000000 08 31 a7 3e d7 3f ed bc 76 6c a1 3d f3 da a2 3e
       0.32654595 -0.028961105 0.078820154 0.3180767
000010 c8 c6 56 be 4a 58 63 bd 22 40 81 3e ce 4e 1c 3e
       -0.20974267 -0.05550412 0.25244242 0.15264437
000020 ab e9 54 3e ca d5 c0 bc 96 29 a5 bd 94 75 37 be
       0.20792262 -0.023539443 -0.080645725 -0.17915946
000030 63 08 0f be 2d dd b9 3e fb 74 21 3e dd fe 9a 3e
       -0.13968043 0.36301556 0.15767281 0.3027257
000040 d9 38 b6 bd b9 96 fc bd d7 89 fb bd 15 fe af 3e
       -0.088975616 -0.123334356 -0.1228215 0.34373537
000050 48 ec 35 3e 93 22 4e be b1 f3 77 3e a7 0b 3b 3e
       0.17765915 -0.20130377 0.24214055 0.18266164
000060 e4 27 30 3c 9b f0 9f 3d 97 8a ac 3d ba f4 c0 bd
       0.010751698 0.07809564 0.084248714 -0.09421678
000070 e5 f5 4b 3e a7 67 a9 3e 3a 8c 73 3d c7 65 a6 3e
       0.1991802 0.33086893 0.059459902 0.32499525
000080 79 38 93 3e ca 9c a3 3e 8b ba f0 3d 85 5a cc 3d
       0.28754023 0.31955558 0.1175433 0.09978203
000090 da 83 ba 3e 75 fa 66 3d d9 dd 97 3e c7 4b ba 3d
       0.3642872 0.0563912 0.29661444 0.09096485
0000a0 d2 7a a5 bd fa 6d 0d be a2 14 a5 bd 9a b9 0e 3f
       -0.08080067 -0.13811484 -0.08060576 0.55751956
0000b0 42 f7 e2 3d 1b 63 60 3d 9f 6e 29 3f 90 ee 63 be
       0.11082317 0.054782014 0.6618442 -0.22258973
0000c0 ee db d9 3e 7e 0b 0d 3f 3c c4 37 3d c1 1c b7 3c
       0.42550606 0.5509566 0.044864878 0.022352578
0000d0 59 84 35 3f b5 0d 17 3f 64 4b 6a bd 7f 8a 2c 3f
       0.7090507 0.5900529 -0.057200804 0.6739883
0000e0 3d ee 12 3f 27 64 fa bd b0 42 7b bc c8 22 1b 3f
       0.5739477 -0.12226134 -0.015335724 0.60599947
0000f0 0f 4e 2d be dd ca 61 be 9e fe 09 be e1 cd 19 3f
       -0.16924308 -0.22050042 -0.13476035 0.6007977
000100 3e 15 a1 bd e9 81 57 be b5 cd 03 3f de fc 39 be
       -0.0786538 -0.2104565 0.5148576 -0.18162867
000110 26 5a 4e be 91 0b 46 be 9f 14 f0 3e 18 f0 f2 bc
       -0.20151576 -0.1934035 0.46890733 -0.029655501
000120 de db 01 be 9d 98 2e 3f 33 11 38 be 66 d3 42 be
       -0.12681529 0.6820162 -0.17975311 -0.19025955
000130 b4 ae 2a be 88 0d 09 3f 44 b1 0a 3f c0 94 be bb
       -0.16668206 0.5353627 0.54176736 -0.005816072
000140 a4 dd 22 bd c0 85 1d be 14 d3 15 3f 47 85 64 3e
       -0.039762154 -0.15383053 0.58525205 0.22316466
000150 2c 43 1f be 1c da 10 be 6e c3 db 3d 67 c3 dd 3e
       -0.15552968 -0.14145702 0.10730635 0.43313143
000160 02 aa 59 be 2d e2 09 3f 08 2e 07 3f bc 3f bf bd
       -0.21256259 0.5386074 0.52804613 -0.09338328
000170 a2 bc 9b 3d 35 0f 04 3f d3 c9 1b 3e d5 88 01 3f
       0.07604338 0.51585704 0.15213709 0.50599414
000180 38 7b ba 3c a7 d0 06 3f ca d7 5a be c4 6b b5 3e
       0.022763833 0.5266213 -0.2137138 0.3543378
000190 33 4e ea 3e f3 df f1 3e da 6a 91 3d b6 21 90 bd
       0.45762786 0.47241172 0.071004584 -0.0703768
0001a0 dd e7 08 3f 3b 33 49 be 53 c4 be 3e f1 c7 45 be
       0.53478795 -0.19648449 0.37259158 -0.19314553
0001b0 24 e2 e1 3e b7 e8 c5 3e be b3 9e 3e d6 ac a0 3e
       0.44117844 0.3865411 0.30996507 0.31381863
0001c0 a2 88 3e be f3 10 18 3f 1e 1e c4 3e 53 1e 1a 3f
       -0.18606809 0.5940086 0.38304228 0.6020252
0001d0 a0 4d 0c bd 16 81 89 3d be 50 1b 3f b0 73 82 3c
       -0.034253716 0.06714074 0.6067008 0.015924305
0001e0 08 e4 22 be 76 60 10 3f 58 9f 0f 3f 65 48 30 3f
       -0.159073 0.5639719 0.56102514 0.68860465
0001f0 21 32 65 be 88 3e 16 bd dc df 17 3f 27 6e 90 3e
       -0.22382404 -0.03668073 0.5932596 0.2820904
000200 7a 45 40 3f 30 5a 22 3f 63 48 05 3f 0f b3 ff bd
       0.7510601 0.63418865 0.5206358 -0.124853246
000210 5d e7 ba 3e 98 0d 35 3f 69 d6 0b 3f c0 43 18 3f
       0.3650464 0.7072387 0.5462404 0.5947838
000220 4e 20 2b 3f 28 0d b6 3e d6 b5 bf 3c 07 84 2c 3f
       0.6684617 0.35556912 0.023402136 0.6738896
000230 74 77 65 be a5 d5 0c 3f cd de 3f 3f b2 e2 40 3f
       -0.22408849 0.55013496 0.7494934 0.7534591
000240 37 c9 37 3f a8 19 79 bd f8 00 47 be d6 b8 f9 3d
       0.71791404 -0.060815483 -0.19433963 0.12193458
000250 ac 85 fa 3e 02 13 49 3f b9 33 43 3f f7 e4 1f be
       0.4893011 0.7854463 0.762508 -0.15614687
000260 62 d9 1c 3f 5d da 3d be fa cf 0b be c5 b4 04 3f
       0.612692 -0.1854033 -0.13653556 0.5183833
000270 7f 10 dd 3e 2c b6 64 be a6 36 26 3f 88 ea 02 3e
       0.43176648 -0.22335118 0.64927137 0.12784779
000280 c6 3c 89 3e f5 b5 b6 3d ee 47 03 be 8e 6e ce 3d
       0.2680418 0.08921424 -0.12820408 0.100796804
000290 77 2c 10 3e db 6c b4 bc 9b ff df bd 36 07 c2 3e
       0.14079462 -0.022024563 -0.10937425 0.37896127
0002a0 f5 83 59 3e 69 2c 4d 3e 67 4f 4f bd b6 22 84 bd
       0.21241744 0.20036472 -0.050612833 -0.06451933
0002b0 03 7b ef b9 fe 10 2a 3e 79 ef a3 3d df c8 12 3e
       -0.00045677283 0.16608045 0.0800466 0.14334439
0002c0 15 d2 8d 3e 27 09 a3 3e a2 b4 92 3d 62 31 2a 3e
       0.27699342 0.3184292 0.07163359 0.166204
0002d0 5a b4 6b 3e c4 2d d5 3e 88 99 80 3e c4 35 23 bd
       0.23018017 0.4163648 0.25117135 -0.039846197
0002e0 4f d7 76 3e d4 f4 23 3d 39 db 83 3d c1 db b4 3d
       0.24105571 0.04002841 0.06438298 0.08830977
0002f0 ec 0b 68 3e c6 71 a0 3e cf 56 a4 bd af da 54 3e
       0.22660798 0.31336802 -0.0802437 0.20786546
000300 f1 94 29 3e 1e 64 a9 3b b4 32 90 3e d2 8a 7c 3e
       0.16560723 0.0051694056 0.28163683 0.24662331
000310 10 0f 4e 3e 3a 0a 25 3e 17 29 68 3e b6 11 4f be
       0.20122933 0.16117182 0.22671925 -0.202216
000320 1a 7c 26 3f 64 0e d6 3e ac c2 aa bd 7b 8b 05 3f
       0.65033114 0.41807854 -0.08337912 0.52165955
000330 18 28 52 be ba 65 97 bd 77 90 e0 3e 94 72 5d be
       -0.20523107 -0.0739245 0.43860218 -0.2162574
000340 9b 29 5a be b6 a8 9b 3e fb 01 5d 3e 93 4a 1d be
       -0.21304934 0.30402154 0.21582787 -0.15360479
000350 dc c9 8d bd 2d ba 04 3f 24 68 06 bd a2 17 1a 3f
       -0.06923267 0.5184658 -0.03281416 0.6019231
000360 4e 82 07 3f 40 8e 3f bb f5 d4 46 be 4e 89 c4 3d
       0.52933204 -0.0029229075 -0.19417174 0.09596501
000370 46 a4 87 3d 17 94 21 3f 98 66 01 3f a4 89 0f 3f
       0.066231295 0.6311659 0.5054717 0.560694
000380 0c f0 23 3d 26 d2 a0 3d 40 5a a6 bc f3 fa fe 3d
       0.04002385 0.07852583 -0.020306706 0.124502085
000390 08 59 e4 3c 18 42 12 3f ec 37 50 3d f2 8d 17 3f
       0.027874485 0.571321 0.05083458 0.59200966
0003a0 d7 6c ee 3e 80 35 cf ba eb 66 db 3e 30 c4 36 bd
       0.46567413 -0.0015808791 0.42851958 -0.044620693
0003b0 c1 dd e6 bd b8 61 16 3f 56 10 9e 3e 80 ea 40 be
       -0.11272765 0.58742857 0.30871838 -0.18839455
0003c0 4c ae 00 3f 68 c0 c9 bc 02 d5 34 3f f1 a3 07 3e
       0.50265956 -0.02462788 0.70637524 0.13246132
0003d0 30 6f aa bd 91 a5 2e 3e ac 3c 21 bd f4 25 1b 3f
       -0.083219886 0.17055346 -0.0393645 0.60604787
0003e0 84 92 77 3d 49 b0 5a be b8 2a f3 3c 22 91 53 3e
       0.060442463 -0.2135631 0.029683456 0.20660833
0003f0 54 db 16 3f 64 d4 3b 3d 26 83 4f be be 21 02 3f
       0.5892842 0.04585685 -0.20264873 0.50832736

B1 f4 [40]
000000 bd be bd bb a4 0f 9d bb 4b e4 86 bb 98 6b 15 bc
       -0.00579056 -0.0047931243 -0.00411657 -0.009119891
000010 b8 2d 69 be 77 54 6e be 86 b4 e7 bb ed 0f 4a bb
       -0.22771347 -0.23274408 -0.0070710806 -0.0030832246
000020 db 62 2e bb 62 73 16 bd 62 f8 87 bc a3 47 1d be
       -0.0026609215 -0.03673113 -0.01659793 -0.15359358
000030 6a de 21 bc c7 50 89 bb cf d0 f0 b9 23 e9 90 bc
       -0.009879688 -0.0041905376 -0.00045931942 -0.017689293
000040 b4 c9 2b bc b2 da ae bc a0 a1 f0 bc 61 42 67 bc
       -0.0104851015 -0.021344516 -0.029373944 -0.014114947
000050 c1 5d b4 bc 6a 8f a8 bc 5d a3 59 bc 9d 6c ee bc
       -0.022017362 -0.020576198 -0.013283578 -0.029104525
000060 ee 2b 0a bd dd 4c 2e be 4d 35 8a bb 30 d5 27 be
       -0.0337333 -0.17021509 -0.0042177797 -0.16389918
000070 d5 45 84 bc e9 6e b8 ba 5a 3c 7d bb af 4f 23 bd
       -0.01614658 -0.001407114 -0.0038640709 -0.039870914
000080 16 cf 22 bc d0 23 56 ba 07 cb 09 bc 39 5b 51 bb
       -0.009937068 -0.00081687886 -0.008410222 -0.0031945242
000090 26 74 d3 bc 11 ad a3 bc e6 31 e4 bc c1 33 9c bb
       -0.02581222 -0.019979985 -0.027855825 -0.0047669117
