Homey/WebView2/MLModels/nexturl.onnx (onnx, 131258 bytes, 7 tensors)

scaler_1/sub/y:0 f4 [426]
000000 83 2c c3 42 09 05 93 41 f8 67 d0 40 f9 75 e8 3f
       97.58694 18.377459 6.5126915 1.8161002
000010 67 78 06 3f b5 95 b0 3e cb 75 87 3e 3a 0f 59 3e
       0.5252747 0.34489217 0.26457056 0.21197215
000020 de b9 34 3e 21 bb 13 3e e9 c5 f2 3d 27 f6 d6 3d
       0.17649028 0.14426853 0.118541546 0.104961686
000030 16 b0 d9 3d 49 19 c9 3d 89 39 bf 3d 4b 3d ba 3d
       0.10629289 0.09819276 0.09337146 0.09093722
000040 e9 5f c0 3d 87 c6 ca 3d 83 3c e6 3d c8 ce 02 3e
       0.093932934 0.09901147 0.112420104 0.12774193
000050 b5 c6 17 3e 19 29 2c 3e 22 7f 41 3e 53 0b 5f 3e
       0.14821894 0.16812553 0.18896154 0.21781664
000060 b2 07 85 3e fd d4 a6 3e 8b c0 d8 3e fe 5a c8 40
       0.25982434 0.32584372 0.423344 6.2611074
000070 fb db 7a 40 f5 7e 64 40 06 fb 4f 40 0d bd 4f 40
       3.9196765 3.5702488 3.2496963 3.2459137
000080 86 36 65 40 be 9d 7c 40 bc 51 27 41 de 7d 04 41
       3.5814528 3.9471278 10.457455 8.280729
000090 34 51 e6 40 2d a2 cd 40 76 5c ba 40 77 d8 a8 40
       7.1974125 6.426047 5.8237867 5.276424
0000a0 1b 41 9b 40 5b 2e 8f 40 7b 56 86 40 4d 9b 7a 40
       4.8516974 4.4744086 4.1980567 3.9157288
0000b0 23 45 69 40 c4 40 5a 40 02 75 4d 40 21 7d 40 40
       3.6448448 3.410203 3.2102666 3.0076373
0000c0 0d 24 34 40 e2 13 29 40 ae f0 1f 40 9e ce 17 40
       2.8147004 2.6418386 2.499065 2.371986
0000d0 99 4b 12 40 d2 73 0d 40 e7 15 0b 40 b4 13 0a 40
       2.285864 2.210194 2.1732118 2.1574526
0000e0 34 59 08 40 ac 28 08 40 e3 a4 8b 41 37 33 6a 41
       2.1304445 2.1274824 17.455511 14.637504
0000f0 4c 73 63 41 ff 12 57 41 b5 ee 51 41 2d 23 46 41
       14.215649 13.442138 13.120778 12.383588
000100 ed 4e 45 41 ef 41 02 45 d1 d6 fb 43 c0 1c b2 41
       12.331769 2084.1208 503.67825 22.264038
000110 4c 3e f8 40 7f 7d a9 40 64 a9 87 40 b4 1a 5c 40
       7.7576046 5.2965693 4.2394276 3.4391298
000120 f3 7e 36 40 0d 52 1f 40 38 b1 05 40 63 f0 ec 3f
       2.8514984 2.489383 2.0889416 1.851086
000130 62 a8 ed 3f 8e e3 ed 3f df 0f e7 3f 31 d5 e4 3f
       1.8567011 1.8585069 1.8051718 1.7877561
000140 7b ab e2 3f c8 b9 eb 3f 62 8e 05 40 d8 67 17 40
       1.7708582 1.8416071 2.0868154 2.3657131
000150 28 b0 29 40 ff d4 40 40 87 66 5b 40 3e 03 7d 40
       2.6513767 3.0130002 3.4281328 3.953323
000160 8b a9 92 40 1e 5d b4 40 6e bd e7 40 f0 50 c4 42
       4.583196 5.636367 7.2418737 98.15808
000170 9a e0 97 42 56 08 8f 42 df cf 85 42 67 3f 88 42
       75.938675 71.51628 66.906 68.12383
000180 ef c1 95 42 09 43 a3 42 53 18 46 43 8b 8c 27 43
       74.87878 81.63093 198.09502 167.549
000190 c1 19 14 43 94 3a 05 43 a2 d3 f2 42 f5 0f df 42
       148.1006 133.22882 121.413345 111.531166
0001a0 25 5c ce 42 5d 67 bf 42 6e 88 b3 42 72 1f a8 42
       103.17997 95.70188 89.766464 84.06142
0001b0 8e 8a 9d 42 b7 8e 93 42 0c ad 8b 42 6c a6 84 42
       78.770615 73.77874 69.83798 66.32504
0001c0 f1 b0 7a 42 a2 42 6c 42 d4 d9 61 42 49 2b 58 42
       62.672794 59.06507 56.462723 54.04227
0001d0 96 45 52 42 21 cd 4e 42 5c 77 4d 42 32 98 4e 42
       52.567955 51.70032 51.36656 51.64863
0001e0 8e 43 4e 42 05 c1 4e 42 e4 ac ab 43 ba 7d 9a 43
       51.56597 51.688496 343.3507 308.98224
0001f0 eb e8 97 43 1e 1e 93 43 70 49 8f 43 85 42 89 43
       303.81967 294.2353 286.57373 274.51968
000200 dd 51 88 43 3f 7f ae 3d 7c d6 06 43 e7 78 b8 42
       272.63956 0.08520364 134.83783 92.23614
000210 6c cc ca 41 7a 70 a7 41 13 70 a5 42 84 59 ff 3e
       25.349815 20.92992 82.718895 0.49872983
000220 84 09 d7 3e 65 3c ca 3e 84 e2 bf 3e 86 a6 b6 3e
       0.41999447 0.39499202 0.37477505 0.35673922
000230 93 cd ad 3e c0 44 a6 3e 6c dd 9f 3e 73 4f 9a 3e
       0.33945903 0.32474327 0.3122362 0.3013874
000240 51 bf 94 3e 73 15 8f 3e 7c 32 89 3e f7 ea 82 3e
       0.29052213 0.27946052 0.2679633 0.2556989
000250 3f 4f 79 3e 66 27 6d 3e 06 f9 60 3e 04 b2 54 3e
       0.24346636 0.2315956 0.21969995 0.20771033
000260 34 5b 49 3e b0 a3 3e 3e 90 fd 34 3e ed 69 2c 3e
       0.19663697 0.1861713 0.17674851 0.16837282
000270 fa 52 24 3e e3 7d 1b 3e 8a 02 10 3e e3 b9 14 3f
       0.16047278 0.1518474 0.14063469 0.5809614
000280 db 6f f3 3e 98 99 ef 3e e3 86 e8 3e 28 fc e5 3e
       0.47546276 0.4679687 0.4541541 0.44918942
000290 00 0d dd 3e 11 a3 d9 3e ee af c1 40 4b 1c a6 40
       0.4317398 0.42507222 6.052726 5.1909537
0002a0 01 33 ec 40 c0 cf 45 40 9a fe 0d 40 6a 55 e2 3f
       7.381226 3.090805 2.2186646 1.7682316
0002b0 37 d9 bd 3f 48 ff 9e 3f 2c d0 86 3f 2f 86 65 3f
       1.4831914 1.2421656 1.0532279 0.8965787
0002c0 d7 03 4d 3f 5b 66 3d 3f 66 98 35 3f 18 0b 34 3f
       0.80083984 0.7398431 0.70935667 0.7032943
0002d0 4f 82 36 3f c0 d8 39 3f 3a 91 42 3f 22 b7 53 3f
       0.71292585 0.7259636 0.7600285 0.82701313
0002e0 be c4 6b 3f 1a 67 85 3f b9 bd 96 3f 18 b0 a9 3f
       0.9209708 1.0422089 1.1776649 1.3256865
0002f0 b9 2a c0 3f 72 8e df 3f fd 07 04 40 86 c9 22 40
       1.5013038 1.7465346 2.0629876 2.54355
000300 26 fd fa 40 c6 be a9 40 e7 f5 9f 40 dd a6 98 40
       7.843402 5.304538 4.9987674 4.770369
000310 1b dd 96 40 2d 3a 9a 40 cf 42 a3 40 2b bb e5 40
       4.7144904 4.8196015 5.1019053 7.1790977
000320 61 58 cb 40 25 7c c4 40 f4 6d bf 40 93 34 bb 40
       6.3545384 6.1401544 5.982172 5.8501678
000330 59 ab b6 40 24 7d b3 40 86 25 b0 40 6d 9b ad 40
       5.7084165 5.609026 5.5045805 5.425223
000340 0f 19 ab 40 8f 38 a7 40 fc 5b a3 40 68 88 9e 40
       5.346809 5.225654 5.1049786 4.954151
000350 ba 5e 99 40 b1 2f 94 40 4f 3c 8e 40 78 6e 87 40
       4.7928133 4.6308217 4.444862 4.232235
000360 bf a8 80 40 1a ee 73 40 41 a0 65 40 87 9c 57 40
       4.020599 3.8114076 3.5879061 3.3689287
000370 63 79 4a 40 0a e6 3c 40 53 32 2e 40 b9 24 da 40
       3.1636589 2.9515405 2.7218215 6.8169827
000380 3e ff be 40 0b 80 bc 40 21 74 b9 40 46 4c b8 40
       5.9686575 5.8906302 5.795426 5.7593107
000390 93 5a b1 40 5f 30 af 40 43 51 df 3d 42 32 9b 3d
       5.5423064 5.4746547 0.10904171 0.07577945
0003a0 13 51 57 3d f4 50 08 3e 19 d0 a5 3d ed bb 5d 3d
       0.052567553 0.13312131 0.08096332 0.054134298
0003b0 7a a0 2d 3d b6 94 21 3e e1 44 8b 3d 27 bc d0 3d
       0.04238937 0.15779385 0.06800247 0.10192137
0003c0 f5 2d 94 3d 0e b2 22 3d 3e 5b 21 3d 80 95 b5 3c
       0.07235328 0.039720587 0.039393656 0.022166014
0003d0 be 1c 37 3c 85 fb e4 3c 6d 66 80 3c 51 34 00 3c
       0.011176286 0.027951965 0.01567384 0.007824973
0003e0 36 ab b5 3c a9 de 47 3c df a5 c7 3b 57 ec 97 3c
       0.022176366 0.012199082 0.0060927714 0.018545313
0003f0 82 61 26 3c e5 04 a4 3b da f5 7e 3c 28 83 0c 3c
       0.010155084 0.0050054663 0.015561545 0.008576192

dense_3/kernel:0 f4 [64, 1]
000000 16 2c ba 3d 6a f4 21 be 6d c2 f5 bd 57 81 fb bd
       0.0909044 -0.15815893 -0.119999744 -0.12280529
000010 a9 83 ad 3d c8 cd 04 3e 0b b3 05 be 42 6c 1b be
       0.08472378 0.12969124 -0.1305658 -0.15178016
000020 9e 51 d1 bd 3d f5 a6 3d b0 35 58 be a9 9a cc 3d
       -0.10220645 0.08152244 -0.2111423 0.099904366
000030 a7 a5 02 be 88 bb 09 be 06 59 c7 3d bd cd 19 be
       -0.12758504 -0.13450444 0.09733777 -0.15019889
000040 50 50 c9 3d b2 b8 aa be 47 3c a3 3d 94 7f 09 be
       0.098297715 -0.33344036 0.07970481 -0.13427573
000050 9a a1 f3 3d b4 88 42 be b4 35 94 3d 0b a2 50 3e
       0.118960574 -0.1899746 0.072368056 0.20374314
000060 01 aa 5a be d7 12 c2 3d ec 6a bd 3d 8b 95 36 be
       -0.21353914 0.0947625 0.09248909 -0.17830484
000070 bb ed 8e be 7f 61 92 3d 01 68 c7 3d 5a 90 c5 3d
       -0.2791575 0.07147502 0.09736634 0.096466735
000080 58 ba 8f 3d c0 ad b7 3d 1d 49 bd 3d 2a d6 85 3d
       0.07017964 0.08968687 0.09242461 0.06534989
000090 10 bf d1 3d 5b 64 75 3d 8f cf 7f 3d 8c ed ca 3d
       0.102415204 0.05991016 0.062453803 0.0990859
0000a0 7a ab 12 be 67 6c dc bd 3e 92 84 3d 8b 43 07 be
       -0.14323226 -0.107628636 0.06473206 -0.1320936
0000b0 34 93 a8 3d 0e 2d 55 3d 2a 0a 92 3d 20 f8 93 3d
       0.08231202 0.05204492 0.07130845 0.072250605
0000c0 ea 74 ed 3d 0c 79 2d bf f0 ee 85 3d 66 90 0f 3e
       0.11594565 -0.6776283 0.06539714 0.14019927
0000d0 54 12 8d 3d c5 a1 7b 3e 4a 95 07 3e 79 31 8d 3d
       0.068882614 0.24573429 0.13240543 0.06894202
0000e0 c4 e6 e7 bd b4 0b 86 be 6f f9 29 be 00 72 bf 3d
       -0.11323312 -0.26180804 -0.16599058 0.09347916
0000f0 f0 39 e1 be f9 0b f6 bd 42 2e d7 3d 67 12 dc bd
       -0.43989515 -0.12014002 0.1050687 -0.107456975

dense_1/bias:0 f4 [64]
000000 9f d6 28 c0 34 3e c4 bf 6c 44 5e bf 2a 23 0a c0
       -2.6380994 -1.5331483 -0.86823153 -2.1583962
000010 03 1e 4e be ef d1 45 bf b0 bf f7 be bd 98 03 c0
       -0.20128636 -0.7727346 -0.48388433 -2.0561974
000020 2f 09 7f be c0 44 eb bf 6e bf e2 bf c8 d6 38 bf
       -0.24905847 -1.8380356 -1.771467 -0.7220273
000030 10 40 bb bd 89 48 b3 bf 91 bb 80 bf 27 80 cc bf
       -0.09143078 -1.4006511 -1.0057241 -1.5976609
000040 21 5c 0a bf 4e b6 cf be 06 ee 84 bf 8d f1 a9 bf
       -0.5404683 -0.40568775 -1.0385139 -1.327684
000050 24 34 db bf ad d7 f9 be 56 49 5e bf 21 75 0a c0
       -1.7125287 -0.4879736 -0.8683065 -2.163399
000060 a8 a4 9f bf a4 51 a5 bf 96 5f 7a bf 27 64 b6 bf
       -1.2472124 -1.291554 -0.978021 -1.4249314
000070 61 76 ef 3c d7 91 87 bf 5a 61 40 bf 6f 01 dd bf
       0.029231252 -1.0591382 -0.75148547 -1.7266062
000080 6b 75 fc be 04 65 a9 bf 3b 2e 3f bf c8 ec d3 bf
       -0.49308333 -1.3233953 -0.7467992 -1.6556635
000090 bc d3 c0 bf a6 c4 a3 bf 28 ef 47 bd be bd f8 bf
       -1.5064616 -1.2794387 -0.04881206 -1.9432905
0000a0 b7 2c 03 bf a0 1b d8 bf 5d c0 11 bf bb cf 16 c0
       -0.51240104 -1.688343 -0.5693415 -2.3564289
0000b0 de 4f bf bf 04 a8 d0 bf db b0 14 c0 d0 6e f2 bc
       -1.4946249 -1.6301274 -2.3232944 -0.029593855
0000c0 6b 82 a2 bf 82 c1 17 bf a5 0f 00 c0 6d a9 84 bd
       -1.269605 -0.59279644 -2.0009549 -0.06477628
0000d0 51 10 cf bf 01 84 d1 bf be 6c 85 bf 2b bf 08 c0
       -1.6176854 -1.6368409 -1.042381 -2.136668
0000e0 8c 90 6a bf 1f 3d e3 bf bf 87 a3 bf a8 05 1c bf
       -0.9162681 -1.7753028 -1.2775801 -0.6094613
0000f0 51 76 1c be 42 69 02 bf 95 da 2e bf fb cf b9 bf
       -0.15279509 -0.5094186 -0.6830228 -1.4516596

dense_1/kernel:0 f4 [426, 64]
000000 bd fc 22 bd 48 a0 b4 bd 7c f6 84 3c e1 ce 41 bd
       -0.03979181 -0.08819634 0.016230814 -0.047316436
000010 f2 27 71 3d 85 44 78 3b 66 36 9b bd 6e 7e 07 be
       0.058875985 0.0037882638 -0.07578735 -0.13231823
000020 d1 aa af bd 97 dd 94 3d a9 f9 13 be 7b 3b 05 3e
       -0.085775025 0.072688274 -0.14450707 0.13010971
000030 ef dd 1f bd 17 a8 01 be 8d 21 55 3d 18 4d b7 bc
       -0.03903001 -0.12661777 0.05203395 -0.022375628
000040 71 b0 84 bd 00 b5 84 bd 41 92 e2 bc 58 44 b2 bc
       -0.06478966 -0.064798355 -0.02765763 -0.021761104
000050 e9 c5 35 bd 55 fb b2 bd 47 64 9b bd 62 11 f5 bb
       -0.044378195 -0.08739344 -0.07587486 -0.007478879
000060 f5 94 ed bd f1 bd d0 3d 65 26 93 bc 99 0f 6b bd
       -0.11600677 0.101924784 -0.017962644 -0.057387922
000070 fa 7b da bd fa c4 8a 3d 4b b2 27 bd dd 36 13 be
       -0.10668178 0.067758515 -0.040941518 -0.14376397
000080 e1 37 14 bc 0e 12 a4 3b 2e 3e 2c 3d d8 c4 fe bc
       -0.009046526 0.005007035 0.042051487 -0.031099722
000090 0d 6f 7a 3c 48 df c4 3c 2a d5 cc bd 39 5f 19 bd
       0.015285266 0.02403225 -0.10001595 -0.037444327
0000a0 8f 5f 82 3d 14 66 16 3d de 75 fc 3c 89 56 0c 3d
       0.063658826 0.036718443 0.030817922 0.034262214
0000b0 68 d6 22 bd 97 1a 3c bd 3c 15 90 bd c9 31 94 3d
       -0.039755255 -0.045923796 -0.070353 0.07236058
0000c0 02 08 1c bd 1a 5b c0 bd 65 3e 2b be c7 5f c1 bc
       -0.038093574 -0.09392376 -0.1672302 -0.02360524
0000d0 53 eb 44 3d 08 a5 fc bc aa 1a b1 bd 95 ad a3 3d
       0.048075985 -0.030840412 -0.08647664 0.079920925
0000e0 24 56 bb 3d 4a 22 4c bc a6 3a 0b be 98 81 db bb
       0.091472894 -0.012459347 -0.13596591 -0.0066987984
0000f0 04 13 d9 3d 5c c6 38 bc b8 d0 58 3d 9d 26 87 bd
       0.1059933 -0.011277761 0.052933425 -0.06599162
000100 24 a4 c0 be 4d 5e 89 be 3d 36 d0 be 0e ee a3 bf
       -0.3762523 -0.26829758 -0.4066638 -1.2807024
000110 9e 7d f4 bd 30 a2 dc bd 85 34 aa 3e 9d 9e 6b 3f
       -0.11938022 -0.10773122 0.33243194 0.920389
000120 3d c9 46 3f 76 29 57 bf f5 a1 84 3e ac 50 b2 3e
       0.77650815 -0.8404764 0.25904813 0.34827173
000130 05 2f 0d 3f e3 e4 68 3d 6f c9 7f be e5 41 33 bf
       0.5514987 0.05685891 -0.24979185 -0.7002242
000140 26 10 a4 be 53 88 86 3e 9d af 28 be 70 4d a9 be
       -0.3204357 0.26275882 -0.16473241 -0.33066893
000150 7e f3 de be 07 4a 97 be ad fd 92 be a2 91 fb 3e
       -0.43545145 -0.29548666 -0.28709164 0.49134547
000160 4c 76 13 3e e8 10 b8 be 68 b4 fd 3d c0 41 42 3e
       0.14400595 -0.35950398 0.123879254 0.18970394
000170 a8 d1 bb 3e fe 80 7c 3e 4e 86 6b 3e 5a bd 06 3f
       0.36683393 0.24658582 0.23000452 0.5263268
000180 91 b8 16 3f e7 44 24 bf 89 6a 83 3f ce bd 77 bf
       0.58875376 -0.64167637 1.0266887 -0.96773994
000190 a7 d9 a0 3e b8 a1 0e be 6a a0 3d 3f fd a4 be 3e
       0.31416056 -0.13928878 0.740729 0.3723525
0001a0 73 9a a3 be 97 31 9d bd e6 a6 31 bd 8d d7 5d 3e
       -0.31953773 -0.07675474 -0.043372057 0.21664257
0001b0 4c f8 4d 3b 22 a7 8c bf 21 b2 93 3e 1d 49 14 3f
       0.0031428514 -1.0988505 0.2884684 0.5792406
0001c0 1e c4 32 3f b5 0c 9b 3d 92 6a 3b 3f 8e 53 fe 3e
       0.698305 0.07570783 0.7320949 0.49673122
0001d0 c0 44 c5 bd 7e c4 3c be f6 8c 96 be 86 5c ac bc
       -0.09632254 -0.18434331 -0.2940442 -0.021040212
0001e0 df 4d 9c bd 23 b5 a9 be 1f 48 f6 3c 1b d6 57 3d
       -0.0763204 -0.3314601 0.030063687 0.05269442
0001f0 46 e7 0e 3f 44 fe 8a 3e 49 e1 9b 3f 0c ed 14 3b
       0.55821645 0.27147114 1.2178127 0.0022724299
000200 0a 03 0d bc 0f f2 3e 3f 50 2f 1f 3e 35 29 5e 3d
       -0.008606682 0.745881 0.15545392 0.054238517
000210 74 08 81 bf 75 fb 90 bd 60 10 39 3d 30 bc 51 be
       -1.0080705 -0.070792116 0.045181632 -0.20481944
000220 96 2e 1c bd 29 60 57 3d 6f 8f 17 3d ff 44 dd bd
       -0.038130365 0.05258194 0.037002023 -0.108041756
000230 a2 a8 f7 be a0 d1 cc bd e5 b7 6c be fc 66 09 3f
       -0.48370844 -0.1000092 -0.23117025 0.53672767
000240 7f 1f 9b be 26 6d d1 be 1b 4f 1b 3e 6d 1c 85 bf
       -0.30297467 -0.40903586 0.15166895 -1.03993
000250 0e 29 a7 3f 3c d0 b8 bf 81 66 81 3d 0f 47 26 3c
       1.3059404 -1.4438548 0.06318379 0.010148778
000260 45 f1 3e bd 6b d1 74 3e d9 1f 7a be 27 0d 47 3e
       -0.04661681 0.23908012 -0.24426211 0.19438611
000270 f9 9b 9e bf 71 ba 96 3d d8 61 81 be 60 aa e5 bd
       -1.2391349 0.073597796 -0.2526996 -0.11214137
000280 c1 95 c3 bf 66 36 09 3f 8c 66 29 3c 35 09 44 3e
       -1.5280076 0.5359863 0.0103393905 0.19144137
000290 6f 6f c0 ba ab ab ba 3c 91 d1 5f bd 4b d6 d8 bc
       -0.0014681647 0.022786936 -0.054643217 -0.02646937
0002a0 ac fd 98 3c 7c ff a2 3d a1 b5 c4 bf fb 10 40 bc
       0.018675648 0.07958886 -1.5367929 -0.011722798
0002b0 a0 16 c3 be f1 85 01 3f 2e f3 28 bd 48 b9 e2 bd
       -0.381032 0.50595003 -0.04124754 -0.11070496
0002c0 b9 d0 0d be 32 dd b6 3d 69 ea 7c be c0 0b 27 3d
       -0.13849153 0.089289084 -0.24698795 0.04078269
0002d0 1d a8 df bd 07 9e 2c bd f8 33 75 bf 74 74 22 bc
       -0.10920737 -0.042142894 -0.95782423 -0.00991546
0002e0 88 0d f7 be 12 42 56 3e d1 06 eb 3d 3e c0 c9 3c
       -0.4825251 0.20923641 0.114759095 0.024627801
0002f0 62 76 71 bf c6 1e d1 3b bc e2 aa bf c9 6b bb bf
       -0.9432126 0.0063818423 -1.3350444 -1.4642268
000300 9c 53 b4 be 6d e8 d0 be 1b d5 5e 3d 93 ee 17 bf
       -0.3522004 -0.40802327 0.054402452 -0.5934841
000310 69 92 f7 3e 1f 00 f5 3e a9 c4 ae 3d 4f f9 82 bf
       0.4835389 0.47851655 0.08533604 -1.0232333
000320 a4 21 43 3e 97 5b 80 3d f1 f3 1e bf 1d 26 1c 3e
       0.19055802 0.062674694 -0.62090975 0.15248914
000330 dd 02 95 3e 0e 01 fd be 6d 7c 2b 3e 12 a2 3b bf
       0.29103747 -0.49414867 0.16746683 -0.73294175
000340 6f 57 42 3d f3 28 b0 3d ca 40 83 3e 76 14 17 3f
       0.047446664 0.086015604 0.25635368 0.59015596
000350 3f dd dc be 77 b1 26 3f a3 46 0a bd 44 e2 f4 be
       -0.43137547 0.6511454 -0.03375877 -0.47828877
000360 b9 59 14 3d 9e ec eb 3e 38 98 91 3e 66 70 0e 3f
       0.03621838 0.46078962 0.28436446 0.55640256
000370 ee 89 5d 3f e5 76 19 3f a7 6a 72 bd 16 5b 90 be
       0.8653859 0.59947044 -0.059183743 -0.28194493
000380 cd cc 19 3f 59 c9 09 3f 90 fd 1f be 4b cd ab bf
       0.60078126 0.5382286 -0.1562407 -1.3422025
000390 19 0e 57 be 61 17 3e 3e d2 9b 87 3e 38 7a 51 3d
       -0.21001472 0.18563606 0.2648607 0.051141948
0003a0 b9 38 7c 3e 4c 25 d7 bd 83 ca 8b 3f 57 30 d3 3d
       0.24631013 -0.10505161 1.0921177 0.103119545
0003b0 b9 37 94 3d 29 bd 7f bf 90 61 cc 3c f5 88 a9 3e
       0.07237191 -0.9989801 0.024948865 0.33112302
0003c0 e0 47 a7 3e 9d 20 a7 3e 0e c2 05 be 8c 98 b3 3d
       0.32672024 0.3264207 -0.13062307 0.087693304
0003d0 fc f1 80 bf 2f 65 03 3e f7 85 47 3f 93 00 58 bf
       -1.0073848 0.12831567 0.7793879 -0.84375876
0003e0 ef 1f 91 3e d1 38 6f be 5f ae f6 be 94 2a 6b 3e
       0.28344676 -0.23361517 -0.4817991 0.22965461
0003f0 cc 3b ca 3e 81 c4 5b 3e ce 2b 5d 3f 15 9a db 3c
       0.39498746 0.21461679 0.86394966 0.02680687

dense_2/bias:0 f4 [64]
000000 35 4c b5 3e 77 aa 03 3f 44 49 a9 3e cc aa 05 3f
       0.35409704 0.51431984 0.3306371 0.5221374
000010 88 c8 97 3e 22 eb 7c bd a0 8d f1 3e 20 97 d3 3e
       0.2964518 -0.061747678 0.47178364 0.41326237
000020 6a 97 15 3f 4a f1 06 3d 5d 52 11 3f ee e8 3b 3e
       0.58434165 0.032944955 0.567663 0.18350574
000030 12 ef e1 3e ea 11 c6 3e dd b1 f0 3e f6 cf 12 3f
       0.4412771 0.38685542 0.470107 0.57348573
000040 0f 62 3e 3e cd 47 dd 3e 62 64 bf 3e cb 1c f5 3e
       0.18592094 0.43218842 0.37381274 0.4787353
000050 b4 f9 96 3e 78 a2 d3 3e 1a c9 8c 3e 3b 5d 90 bd
       0.29487383 0.4133489 0.27497178 -0.07049032
000060 69 1e 30 3f 4d bb 97 3e c0 a6 92 3e be 1c 73 3e
       0.687964 0.29635087 0.28642845 0.23741433
000070 01 14 f9 3e f9 46 f4 3e c5 ba 81 3d d4 9e 53 3e
       0.48648074 0.47710398 0.063344516 0.20666057
000080 2d 58 8f 3e 80 1f 33 3e ac 51 89 3e 4d f9 73 3e
       0.2799696 0.17492485 0.26820123 0.2382557
000090 da dd 90 3c ff 83 a9 3e 6e cf a5 3e e4 57 19 3e
       0.017683912 0.33108518 0.3238482 0.14974934
0000a0 cf 2a 16 3f ec b2 03 3f a5 0a 47 3e 79 6b c2 3e
       0.5865907 0.5144489 0.19437654 0.3797262
0000b0 89 85 99 3e 07 de 40 3e 3e be 9d 3e 40 5f f1 3e
       0.29984692 0.18834697 0.30809206 0.47142982
0000c0 7c e8 7d 3e 13 2e 94 3e 56 ff c1 3e cb 46 02 3f
       0.24795717 0.28941402 0.37890118 0.5088927
0000d0 fe ce 69 3e 67 3f b0 bb 15 1e 07 3f 56 77 0d 3e
       0.22832868 -0.005378652 0.52780277 0.13815054
0000e0 fb 68 a7 3e d7 0c 02 3f 3e ca 15 3f 2a f0 bf 3e
       0.3269728 0.5080084 0.5851172 0.37487918
0000f0 01 84 d7 3e 0c cb c7 3e 65 88 b6 3d 8d b5 c4 3e
       0.42092898 0.390221 0.08912734 0.38419762

scaler_1/truediv/y:0 f4 [426]
000000 7a 87 f1 43 3a 16 0d 42 04 3c 04 41 37 89 68 41
       483.0584 35.271706 8.264652 14.5335
000010 7f 10 83 40 8d b9 50 40 a4 3b 42 40 d2 58 1a 40
       4.0957637 3.2613251 3.0348902 2.4116712
000020 36 06 1b 40 d9 a8 fd 3f e7 3f d6 3f b1 64 d5 3f
       2.422254 1.9817153 1.6738251 1.6671354
000030 18 c1 35 40 36 e4 03 40 50 24 d5 3f d2 1c bb 3f
       2.8399105 2.060804 1.6651707 1.461817
000040 c6 49 da 3f 09 39 ce 3f a0 16 ec 3f 79 9b fe 3f
       1.7053764 1.6111156 1.8444405 1.9891196
000050 b6 dd 06 40 7d 84 0d 40 c4 57 15 40 af 55 22 40
       2.1072822 2.2112114 2.3334818 2.5364797
000060 99 0a 34 40 ce 98 56 40 6f 94 67 40 c3 2b f8 41
       2.8131468 3.3530765 3.6184347 31.021368
000070 31 ea be 41 c3 94 c8 41 b0 7b 9e 41 c8 a9 a5 41
       23.864351 25.072638 19.810394 20.707901
000080 b9 df c5 41 b9 7c bb 41 54 cb 3c 42 81 32 1f 42
       24.73424 23.4359 47.198563 39.79932
000090 fc b5 0b 42 f5 16 03 42 62 06 f9 41 fd 2c e0 41
       34.92772 32.77242 31.128117 28.021967
0000a0 f3 73 d6 41 d4 e0 c5 41 00 ec c0 41 54 d7 b9 41
       26.806616 24.73478 24.115234 23.23014
0000b0 87 48 ad 41 9e 28 a7 41 7f 66 b5 41 cf b2 b7 41
       21.660414 20.894833 22.675047 22.962309
0000c0 1a ed be 41 63 6b ba 41 d9 22 c3 41 18 65 b4 41
       23.865772 23.302435 24.392015 22.549362
0000d0 15 0b a6 41 19 a0 9d 41 de 69 90 41 dc 8c 8f 41
       20.755411 19.703173 18.051693 17.943779
0000e0 67 4a 90 41 81 b1 9f 41 92 29 b1 42 50 40 9d 42
       18.03633 19.961672 88.58119 78.62561
0000f0 95 d7 9d 42 f4 33 97 42 37 f2 96 42 32 87 81 42
       78.92106 75.60147 75.473076 64.76405
000100 13 bb 86 42 e2 a0 42 45 e3 a5 fc 43 b1 e3 20 42
       67.36538 3114.0552 505.296 40.222355
000110 95 b7 9e 41 ce 9d 80 41 5b a5 7f 41 c8 98 5e 41
       19.83964 16.077053 15.97787 13.9123
000120 3e 46 3a 41 ea dc 3e 41 bf ef 22 41 23 20 16 41
       11.642149 11.928934 10.183532 9.382846
000130 77 a2 5f 41 66 7f 4c 41 0c 8a 3e 41 bd 39 17 41
       13.977164 12.781103 11.908703 9.451596
000140 e6 7b 11 41 29 d1 11 41 31 52 26 41 b4 f7 3c 41
       9.092749 9.1135645 10.395066 11.810474
000150 c5 9d 3a 41 61 46 44 41 59 51 54 41 99 b2 70 41
       11.663518 12.267182 13.26986 15.043603
000160 c0 58 73 41 d1 56 8f 41 61 77 9d 41 49 93 0e 43
       15.2091675 17.91739 19.68329 142.57533
000170 3f 01 19 43 71 1f 12 43 1a f7 10 43 85 ae 0b 43
       153.00487 146.12282 144.96524 139.68172
000180 21 5c 1c 43 07 6b 12 43 3a fb 97 43 a7 f5 7a 43
       156.35988 146.41808 303.9627 250.95958
000190 5c 6d 59 43 81 64 44 43 51 0e 39 43 89 e5 31 43
       217.42719 196.3926 185.05592 177.89662
0001a0 58 d8 31 43 31 9a 28 43 65 9e 23 43 cb 23 1c 43
       177.8451 168.60231 163.61873 156.13982
0001b0 4a 76 11 43 cb 78 09 43 78 25 11 43 02 75 1d 43
       145.46207 137.47185 145.14636 157.45706
0001c0 74 02 1b 43 44 71 11 43 07 bb 15 43 20 ed 11 43
       155.00958 145.44244 149.73058 145.92627
0001d0 65 ab 0d 43 32 20 0a 43 7c 56 07 43 32 d0 0a 43
       141.66951 138.12576 135.33783 138.81326
0001e0 64 80 0d 43 bd ee 14 43 ff f3 f9 43 ed f8 ed 43
       141.50153 148.93257 499.90622 475.94473
0001f0 ef 5f f7 43 0a c2 fa 43 6f 1d ec 43 22 8c e4 43
       494.74948 501.51593 472.22995 457.0948
000200 0f 7e ed 43 45 5f 03 3f 95 14 fb 42 bd 10 e4 42
       474.98483 0.51317245 125.5402 114.03269
000210 7d a2 8c 40 fe e1 db 40 d2 4c c2 41 ca ff ff 3e
       4.394835 6.871337 24.28751 0.4999984
000220 95 b3 fc 3e 6a 4a fa 3e 57 d7 f7 3e 53 44 f5 3e
       0.4935576 0.48884898 0.4840648 0.4790369
000230 f6 71 f2 3e 3f c2 ef 3e 80 43 ed 3e c6 ef ea 3e
       0.4735257 0.46827886 0.4634056 0.45886058
000240 20 73 e8 3e 7c c0 e5 3e 93 c3 e2 3e 99 5c df 3e
       0.45400333 0.44873416 0.44289836 0.43625334
000250 b8 bc db 3e fb fc d7 3e 7d fd d3 3e c1 b3 cf 3e
       0.42917418 0.42185196 0.41404334 0.4056683
000260 4a 7f cb 3e 19 4b c7 3e 2a 4e c3 3e c1 96 bf 3e
       0.3974555 0.38924482 0.38145572 0.37419704
000270 30 ed bb 3e 31 be b7 3e 70 fe b1 3e 26 9f fc 3e
       0.36704397 0.35887292 0.34764433 0.4934017
000280 0a b1 ff 3e 62 79 ff 3e ed eb fe 3e bb ac fe 3e
       0.49939758 0.49897295 0.49789372 0.49741158
000290 67 9a fd 3e f6 1b fd 3e 8e 4f 35 41 d0 f9 00 41
       0.49531862 0.49435395 11.331923 8.060989
0002a0 29 a6 87 41 4d a4 56 41 cb 2e 39 41 b9 02 27 41
       16.956133 13.4151125 11.573924 10.438165
0002b0 4f b8 19 41 da aa 0c 41 ca 30 02 41 1b cb f1 40
       9.607497 8.791712 8.136911 7.556043
0002c0 6a 74 e5 40 81 b5 dd 40 10 ae d8 40 8a 3e d7 40
       7.1704607 6.9284062 6.771248 6.726384
0002d0 cd 2a d9 40 68 c5 db 40 c5 eb e0 40 9f db ea 40
       6.7864747 6.8678474 7.0287805 7.339309
0002e0 e7 be f7 40 48 18 03 41 82 f0 0a 41 25 2c 13 41
       7.7420535 8.193428 8.683718 9.198277
0002f0 61 31 1c 41 fb 7f 27 41 40 61 34 41 f1 36 44 41
       9.762055 10.468745 11.273743 12.263413
000300 d7 12 7c 41 91 47 63 41 4c 0a 5e 41 3c 79 5a 41
       15.7546 14.204972 13.877514 13.654598
000310 48 ea 59 41 71 3a 5a 41 25 a6 5e 41 0e 87 64 41
       13.619698 13.639268 13.915563 14.282972
000320 69 2b 61 41 b1 0d 60 41 bf b2 5f 41 b5 da 5f 41
       14.073098 14.003343 13.981139 13.990895
000330 25 bd 5f 41 6b 43 60 41 55 62 60 41 d7 7c 60 41
       13.983678 14.016459 14.024007 14.0304785
000340 20 0b 61 41 b9 24 60 41 7e c2 5f 41 58 34 5e 41
       14.065216 14.0089655 13.984983 13.887779
000350 ef ad 5c 41 ca 16 5b 41 8d 39 58 41 e0 5f 54 41
       13.792464 13.693064 13.5140505 13.273407
000360 a4 5c 50 41 4b 0b 4c 41 5a 36 46 41 7b 7b 40 41
       13.022617 12.752757 12.388269 12.030147
000370 43 cc 3a 41 54 8c 34 41 04 b3 2e 41 d0 a3 53 41
       11.674869 11.28426 10.918705 13.227493
000380 f9 27 50 41 cd 0b 4f 41 2d 21 4f 41 2f a6 4e 41
       13.009759 12.940381 12.9456 12.915572
000390 97 bf 4b 41 cb 08 4b 41 09 96 9f 3e 8a 7f 87 3e
       12.734275 12.689647 0.31169155 0.26464492
0003a0 4c 86 64 3e eb ed ad 3e a9 a9 8b 3e 9a b6 67 3e
       0.22316855 0.3397058 0.27277878 0.2262825
0003b0 af 4f 4e 3e fb a5 ba 3e 65 e5 80 3e 2a e7 9a 3e
       0.20147584 0.36454758 0.25175014 0.3025449
0003c0 15 a5 84 3e 3e fd 47 3e ca 32 47 3e b0 c1 16 3e
       0.25907198 0.19530198 0.19452968 0.14722323
0003d0 0e 4c d7 3d 91 ca 28 3e e9 61 fe 3d 1f 74 b4 3d
       0.10512553 0.16483523 0.12421019 0.08811211
0003e0 7f ca 16 3e 08 d1 e0 3d 13 5f 9f 3d 81 26 0a 3e
       0.14725684 0.109773695 0.07781806 0.1349125
0003f0 d4 54 cd 3d 12 88 90 3d e9 7b fd 3d 79 d8 bc 3d
       0.10025945 0.07057203 0.123771496 0.092209764

dense_2/kernel:0 f4 [64, 64]
000000 96 dc 3e be 11 02 3f 3e 85 8a 08 be 73 e9 5d 3e
       -0.18638834 0.18653132 -0.13334091 0.21671085
000010 0b 1a 38 be 59 7f 8e bd 1f 77 e9 3d 0d 05 1f 3e
       -0.17978685 -0.069578834 0.11399674 0.1552927
000020 01 e9 f8 3c 44 69 a1 bd b3 6c fa 3a ee d6 4d be
       0.030384542 -0.07881406 0.0019105881 -0.2010152
000030 70 5f 23 bc fb b2 64 3d 6e f1 d3 be 35 d5 4b 3e
       -0.009971485 0.05583475 -0.41395134 0.19905551
000040 f8 2b b7 be ac 43 b3 3d 3e 7e a2 bd ed e2 6a bd
       -0.35775733 0.08753142 -0.07934235 -0.05734532
000050 53 20 fe bd 56 aa 5a 3e 89 9c 1a bd 88 bf ca be
       -0.12408509 0.2135404 -0.03774694 -0.39599252
000060 32 c7 0a 3e f4 ff 5f be d3 09 ac be 9b bd 45 3e
       0.1355255 -0.21874982 -0.33601245 0.1931061
000070 b3 db 66 3c 16 d7 b1 be 27 ef 3a be 23 66 3d be
       0.014090466 -0.3473441 -0.18255292 -0.18495993
000080 9a ac 08 be fb 75 37 bc 30 23 0c be be d5 03 be
       -0.13347092 -0.011197562 -0.13685298 -0.12874505
000090 29 3a 8c be 4b 10 53 be 5b b0 d3 bd 88 5f b1 be
       -0.27388123 -0.20611684 -0.103363715 -0.34643197
0000a0 74 d8 a9 3d 9c f5 13 3e c5 69 4d bd 5b c2 e1 bc
       0.08293238 0.14449161 -0.050149698 -0.027558496
0000b0 99 d6 a1 be cf da d2 3d ea 29 56 be b0 0e 9b be
       -0.31609038 0.10295641 -0.20914426 -0.30284643
0000c0 d7 b6 16 3e b0 5c 84 3d 11 c3 8f bd 54 52 ee be
       0.14718185 0.06462991 -0.07019628 -0.46547186
0000d0 6f 22 ec bd 91 30 02 bf 1b a8 ad 3d 1f 69 8e 3d
       -0.11530005 -0.50855356 0.08479329 0.06953644
0000e0 8d 9d 4c 3d 1f c8 25 3e 6b 1c 8a 3d 30 8e b2 3d
       0.04995494 0.16189621 0.067437015 0.08718526
0000f0 3d af ca 3d 6b 65 80 3e 5a 97 c6 be cc 3d 9f bb
       0.09896705 0.25077376 -0.38787347 -0.0048596617
000100 a1 57 49 bc 9e ff 2c 3c 8e 22 7a 3c 26 c2 26 3d
       -0.012288959 0.010558991 0.015267028 0.040712498
000110 e9 5a e0 bd 76 1e e9 bd e0 f3 11 3d c8 aa 81 3c
       -0.1095484 -0.11382763 0.035632968 0.015828505
000120 a1 43 85 3c 00 6d ae be 9a 94 ed bc 8b 12 ad be
       0.0162676 -0.34067535 -0.029001523 -0.3380321
000130 ee fb 60 3c a1 78 22 3a a1 e2 29 bd 0a 5e cd 3b
       0.01373194 0.00061977847 -0.041475896 0.006267314
000140 31 0b 35 be 34 bf e9 bc a4 25 c4 bc 93 9a c9 3c
       -0.1768005 -0.028533556 -0.02394373 0.02460984
000150 75 5b fb bd da e1 0d 3d d2 8c 4c be 6f b8 2b be
       -0.122733034 0.034639217 -0.19975594 -0.16769575
000160 f2 ee 65 bc 04 8b bd be f5 10 0e bd e4 dc 0a 3c
       -0.01403402 -0.37020123 -0.03468414 0.008475516
000170 6a 04 c0 bc 77 32 08 bd 6b 71 7f be 56 b4 82 be
       -0.023439605 -0.033251252 -0.2494561 -0.2552821
000180 92 71 14 bd 28 82 e9 bd 0d 42 94 be 7d 02 58 be
       -0.03624112 -0.114017785 -0.28956643 -0.21094699
000190 0d 4c b1 bd 64 49 45 bd 15 55 20 bd 4b c5 89 bc
       -0.08657084 -0.048165694 -0.03914364 -0.01681771
0001a0 15 8a 11 3d 64 c0 05 3d 7e 20 9b bd c4 7b 10 3d
       0.035532076 0.03265418 -0.07574557 0.035274282
0001b0 eb 12 8d bc f8 5d c8 bc ff 6d ce bd 5a 62 31 bd
       -0.017220935 -0.02445887 -0.10079574 -0.043306686
0001c0 d8 8a 6b bd 87 71 f8 3b 1b ca b0 bd b4 41 e9 be
       -0.05750546 0.007581893 -0.086322986 -0.4555794
0001d0 be 92 d0 bd a0 df 81 be 92 da 3c bd ad 82 88 bd
       -0.10184239 -0.25365925 -0.046106882 -0.066655494
0001e0 57 05 01 3d 69 6d ce bc e2 6f 8d 3b 27 ea 9d bd
       0.031499233 -0.025198655 0.004316316 -0.07710677
0001f0 c8 b9 ab 38 e0 f7 96 3d 5d c6 d5 bd d7 e1 16 3d
       8.18852e-05 0.07371497 -0.104382254 0.03683647
000200 9f 13 63 3c 94 8b 75 3c 39 20 94 3d 9b 10 26 3d
       0.0138596585 0.014986891 0.072327085 0.04054318
000210 60 cb c8 3d bb 40 3d 3c fa ee 80 bc ad 29 40 bc
       0.09804416 0.0115510775 -0.015738953 -0.011728686
000220 0c 03 f2 3b 8c 58 4b 3e 9e 01 65 3d d6 74 fe 3d
       0.007385617 0.19857997 0.055909745 0.124246284
000230 83 94 a3 bd 31 2c b8 3d af 82 3d 3d c6 25 be 3c
       -0.07987311 0.08992804 0.046267208 0.023211371
000240 f5 55 b0 bb 48 53 a5 3d 63 da ea 3c 36 8b 76 3d
       -0.0053813406 0.08072525 0.028668588 0.060191356
000250 74 75 26 3d c1 17 36 bd d8 33 a2 3d ec 8d ee 3d
       0.040639356 -0.044456247 0.07920045 0.11648163
000260 ae 4d 48 3d 68 34 8c 3c e9 72 29 bd f9 0f c6 bd
       0.048902206 0.017114833 -0.041369352 -0.09671015
000270 84 43 bc 3d 9e 8f e5 3c 32 12 2c 3e a3 76 af 3d
       0.09192565 0.028022584 0.16803816 0.0856755
000280 29 56 56 3d 7e ef 2e 3e d9 d2 5e bd 74 fb 29 3e
       0.052328262 0.17083547 -0.0544003 0.16599828
000290 fe 02 18 3e 8a 9d e4 3b b9 86 a4 3c 36 9f 29 be
       0.14844891 0.006976788 0.020083772 -0.1656464
0002a0 93 c0 62 3d d5 49 4e 3c d5 f5 d1 3d 21 f0 57 3d
       0.055359434 0.012590845 0.10251967 0.05271924
0002b0 d2 25 ef 3c a6 f4 2d 3e b5 f8 84 3d 4d e8 34 3d
       0.029192839 0.16987857 0.064927496 0.04416685
0002c0 7d 65 ae bd 50 ad ba 3c 8d d6 21 3c 1e 05 03 3d
       -0.08515451 0.02278772 0.009877813 0.031987302
0002d0 7a 96 e7 3d bc 32 c7 3d 28 ef c8 3c 88 42 08 3d
       0.11307998 0.09726474 0.024528101 0.033266574
0002e0 28 33 89 3c 2b 56 9d 3d ca 8f 01 3c 8b 28 19 3c
       0.016748026 0.07682451 0.007907817 0.009348045
0002f0 ab 0c d5 3d 95 86 25 3c a4 cc 72 3d cd de 4d bd
       0.10402807 0.010102888 0.05927719 -0.050261308
000300 5d 86 23 be 08 68 d6 3c 48 ad 88 bc 67 1f 0c 3d
       -0.15969224 0.026172653 -0.01668419 0.034209635
000310 51 76 16 be 7d 6a 3a bd c0 ad 56 3d 96 49 14 3d
       -0.14693572 -0.04551171 0.052411795 0.03620299
000320 30 be 05 3d 76 9d 7f bd ee dc 6b bd db 4c 91 be
       0.03265208 -0.062406026 -0.05758374 -0.2837895
000330 5a 61 de 3d 11 6b a9 3b 51 d2 9e be f7 26 dc 3d
       0.10858412 0.005170234 -0.31019834 0.107496195
000340 38 78 fa be a9 30 92 bd d3 db 9a 3c d0 32 98 3d
       -0.48919845 -0.071381874 0.018903648 0.07431567
000350 33 f8 38 be 04 01 83 3d 62 88 1c bd 1c 6c d8 be
       -0.1806343 0.06396678 -0.038216002 -0.4226998
000360 c9 3d 1e bc 5e 99 b0 be 39 53 0e be f3 48 b0 3d
       -0.009658285 -0.3449201 -0.13898934 0.08607664
000370 ba ae 80 bd 35 1f 34 be ae 22 56 be 3d 63 a0 be
       -0.062833264 -0.1759003 -0.20911667 -0.31325713
000380 70 88 72 bd 4a 19 ce bd 88 7c c0 be 07 d2 b0 bd
       -0.05921215 -0.10063417 -0.3759501 -0.086338095
000390 92 c0 bd bd ba cf 3f be 90 d4 5e bd 79 32 d7 be
       -0.092652455 -0.18731585 -0.054401934 -0.42030695
0003a0 51 9e 1a 3c f9 3a cc 3c 23 b5 93 3b aa 09 bb 3d
       0.00943716 0.024930464 0.004507677 0.09132703
0003b0 22 5f 25 be 18 41 2f be ea 25 bf bd ee 21 1f be
       -0.16149572 -0.17114675 -0.093334034 -0.15540287
0003c0 74 af e6 bd a8 cd 45 3d 2a 12 14 be 47 f0 d6 be
       -0.11263934 0.048291832 -0.14460054 -0.41980192
0003d0 37 e5 e9 ba a5 44 09 bf f0 7c 4a bd 33 94 4b bd
       -0.0017844801 -0.5362037 -0.049435556 -0.04970188
0003e0 e8 92 e3 3d ee 4f 10 bd 92 e8 b9 bc eb 0e bd 3c
       0.111120045 -0.035232477 -0.022693906 0.023078403
0003f0 be 92 87 bc 1f bf 58 3d 45 36 8c be 0c 57 9c 3d
       -0.016549464 0.052916642 -0.27385154 0.076337904
